…
Url":"https://lh3.googleusercontent.com/a-/AOh14GiUBp1SS4vKSE98GGZj7W_77VBKoQQJ5_XNLIgXJg=s64","userId":"07900766820086125521"}},"outputId":"4072994f-422a-4f52-fcb1-1f3068e767a4"},"source":["#Let's display the architecture of our model so far.\n","model.summary()"],"execution_count":null,"outputs":[{"output_type":"stream","text":["Model: \"sequential_1\"\n","_________________________________________________________________\n","Layer (type)                 Output Shape              Param #   \n","=================================================================\n","conv2d_3 (Conv2D)            (None, 30, 30, 32)        896       \n","_________________________________________________________________\n","max_pooling2d_2 (MaxPooling2 (None, 15, 15, 32)        0         \n","_________________________________________________________________\n","conv2d_4 (Conv2D)            (None, 13, 13, 64)        18496     \n","_________________________________________________________________\n","max_pooling2d_3 (MaxPooling2 (None, 6, 6, 64)          0         \n","_________________________________________________________________\n","conv2d_5 (Conv2D)            (None, 4, 4, 64)          36928     \n","=================================================================\n","Total params: 56,320\n","Trainable params: 56,320\n","Non-trainable params: 0\n","_________________________________________________________________\n"],"name":"stdout"}]},{"cell_type":"code","metadata":{"id":"IOVaGxiFU-SD","colab_type":"code","colab":{}},"source":["model.add(layers.Flatten())\n","model.add(layers.Dense
…
lapsed":1214,"user":{"displayName":"Aishwarya Roy","photoUrl":"https://lh3.googleusercontent.com/a-/AOh14GiUBp1SS4vKSE98GGZj7W_77VBKoQQJ5_XNLIgXJg=s64","userId":"07900766820086125521"}},"outputId":"2674deb3-c5ac-4b49-b778-3d8b50f66421"},"source":["model.summary()"],"execution_count":null,"outputs":[{"output_type":"stream","text":["Model: \"sequential_1\"\n","_________________________________________________________________\n","Layer (type)                 Output Shape              Param #   \n","=================================================================\n","conv2d_3 (Conv2D)            (None, 30, 30, 32)        896       \n","_________________________________________________________________\n","max_pooling2d_2 (MaxPooling2 (None, 15, 15, 32)        0         \n","_________________________________________________________________\n","conv2d_4 (Conv2D)            (None, 13, 13, 64)        18496     \n","_________________________________________________________________\n","max_pooling2d_3 (MaxPooling2 (None, 6, 6, 64)          0         \n","_________________________________________________________________\n","conv2d_5 (Conv2D)            (None, 4, 4, 64)          36928     \n","_________________________________________________________________\n","flatten (Flatten)            (None, 1024)              0         \n","_________________________________________________________________\n","dense (Dense)                (None, 64)                65600     \n","_________________________________________________________________\n","dense_1 (Dense)              (None, 10)                650       \n","=================================================================\n","Total params: 122,570\n","Trainable params: 122,570\n","Non-trainable params: 0\n","_________________________________________________________________\n"],"name":"stdout"}]},{"cell_type":"code","metadata":{"id":"yJeE14ZHVZvQ","colab_type":"code","colab":{"base_uri":"https://localhost:8080/","height":373},"executionInf
…
